…
2023-06-28 18:33:54 | INFO | torch.distributed.distributed_c10d | Added key: store_based_barrier_key:11 to store for rank: 0
2023-06-28 18:33:54 | INFO | torch.distributed.distributed_c10d | Rank 0: Completed store-based barrier for key:store_based_barrier_key:11 with 16 nodes.
2023-06-28 18:33:54 | INFO | torch.distributed.distributed_c10d | Added key: store_based_barrier_key:12 to store for rank: 0
2023-06-28 18:33:54 | INFO | torch.distributed.distributed_c10d | Rank 0: Completed store-based barrier for key:store_based_barrier_key:12 with 16 nodes.
2023-06-28 18:33:56 | INFO | fairseq_cli.train | LanguageModel(
  (decoder): LMDecoder(
    (dropout_module): Dropout(p=0.1, inplace=False)
    (embed_tokens): Embedding(100287, 768, padding_idx=1)
    (output_projection): Linear(in_features=768, out_features=100287, bias=False)
    (layers): ModuleList(
      (0): DecoderLayer(
        (dropout_module): Dropout(p=0.1, inplace=False)
        (self_attn): MultiheadAttention(
          (k_proj): Linear(in_features=768, out_features=768, bias=True)
          (v_proj): Linear(in_features=768, out_features=768, bias=True)
          (q_proj): Linear(in_features=768, out_features=768, bias=True)
          (out_proj): Linear(in_features=768, out_features=768, bias=True)
          (inner_attn_ln): FusedLayerNorm(torch.Size([768]), eps=1e-05, elementwise_affine=True)
          (dropout_module): Dropout(p=0.1, inplace=False)
          (xpos): XPOS()
        )
        (self_attn_layer_norm): FusedLayerNorm(torch.Size([768]), eps=1e-05, elementwise_affine=True)
        (ffn): FeedForwardNetwork(
          (activation_dropout_module): Dropout(p=0.0, inplace=False)
          (dropout_module): Dropout(p=0.1, inplace=False)
          (fc1): Linear(in_features=768, out_features=3072, bias=True)
          (fc2): Linear(in_features=3072, out_features=768, bias=True)
          (ffn_layernorm): FusedLayerNorm(torch.Size([3072]), eps=1e-05, elementwise_affine=True)
        )
        (final_layer_norm): FusedLayerNorm(torch.Size([768]), eps=1e-05, elementwise_affine=True)
      )
      (1): DecoderLayer(
        (dropout_module): Dropout(p=0.1, inplace=False)
        (self_attn): MultiheadAttention(
          (k_proj): Linear(in_features=768, out_features=768, bias=True)
          (v_proj): Linear(in_features=768, out_features=768, bias=True)
          (q_proj): Linear(in_features=768, out_features=768, bias=True)
          (out_proj): Linear(in_features=768, out_features=768, bias=True)
          (inner_attn_ln): FusedLayerNorm(torch.Size([768]), eps=1e-05, elementwise_affine=True)
          (dropout_module): Dropout(p=0.1, inplace=False)
          (xpos): XPOS()
        )
        (self_attn_layer_norm): FusedLayerNorm(torch.Size([768]), eps=1e-05, elementwise_affine=True)
        (moe_layer): MH_MOELayer(
          (gate): Top2Gate(
            (wg_reduction): Linear(in_features=384, out_features=16, bias=False)
          )
          (experts): ModuleList(
            (0): FeedForwardNetwork(
              (activation_dropout_module): Dropout(p=0.0, inplace=False)
              (dropout_module): Dropout(p=0.1, inplace=False)
              (fc1): Linear(in_features=768, out_features=3072, bias=True)
              (fc2): Linear(in_features=3072, out_features=768, bias=True)
              (ffn_layernorm): FusedLayerNorm(torch.Size([3072]), eps=1e-05, elementwise_affine=True)
            )
          )
          (multi_heads): Linear(in_features=768, out_features=768, bias=True)
          (out_proj): Linear(in_features=768, out_features=768, bias=True)
        )
        (final_layer_norm): FusedLayerNorm(torch.Size([768]), eps=1e-05, elementwise_affine=True)
      )
      (2): DecoderLayer(
        (dropout_module): Dropout(p=0.1, inplace=False)
        (self_attn): MultiheadAttention(
          (k_proj): Linear(in_features=768, out_features=768, bias=True)
          (v_proj): Linear(in_features=768, out_features=768, bias=True)
          (q_proj): Linear(in_features=768, out_features=768, bias=True)
          (out_proj): Linear(in_features=768, out_features=768, bias=True)
          (inner_attn_ln): FusedLayerNorm(torch.Size([768]), eps=1e-05, elementwise_affine=True)
          (dropout_module): Dropout(p=0.1, inplace=False)
          (xpos): XPOS()
        )
        (self_attn_layer_norm): FusedLayerNorm(torch.Size([768]), eps=1e-05, elementwise_affine=True)
        (ffn): FeedForwardNetwork(
          (activation_dropout_module): Dropout(p=0.0, inplace=False)
          (dropout_module): Dropout(p=0.1, inplace=False)
          (fc1): Linear(in_features=768, out_features=3072, bias=True)
          (fc2): Linear(in_features=3072, out_features=768, bias=True)
          (ffn_layernorm): FusedLayerNorm(torch.Size([3072]), eps=1e-05, elementwise_affine=True)
        )
        (final_layer_norm): FusedLayerNorm(torch.Size([768]), eps=1e-05, elementwise_affine=True)
      )
      (3): DecoderLayer(
        (dropout_module): Dropout(p=0.1, inplace=False)
        (self_attn): MultiheadAttention(
          (k_proj): Linear(in_features=768, out_features=768, bias=True)
          (v_proj): Linear(in_features=768, out_features=768, bias=True)
          (q_proj): Linear(in_features=768, out_features=768, bias=True)
          (out_proj): Linear(in_features=768, out_features=768, bias=True)
          (inner_attn_ln): FusedLayerNorm(torch.Size([768]), eps=1e-05, elementwise_affine=True)
          (dropout_module): Dropout(p=0.1, inplace=False)
          (xpos): XPOS()
        )
        (self_attn_layer_norm): FusedLayerNorm(torch.Size([768]), eps=1e-05, elementwise_affine=True)
        (moe_layer): MH_MOELayer(
          (gate): Top2Gate(
            (wg_reduction): Linear(in_features=384, out_features=16, bias=False)
          )
          (experts): ModuleList(
            (0): FeedForwardNetwork(
              (activation_dropout_module): Dropout(p=0.0, inplace=False)
              (dropout_module): Dropout(p=0.1, inplace=False)
              (fc1): Linear(in_features=768, out_features=3072, bias=True)
              (fc2): Linear(in_features=3072, out_features=768, bias=True)
              (ffn_layernorm): FusedLayerNorm(torch.Size([3072]), eps=1e-05, elementwise_affine=True)
            )
          )
          (multi_heads): Linear(in_features=768, out_features=768, bias=True)
          (out_proj): Linear(in_features=768, out_features=768, bias=True)
        )
        (final_layer_norm): FusedLayerNorm(torch.Size([768]), eps=1e-05, elementwise_affine=True)
      )
      (4): DecoderLayer(
        (dropout_module): Dropout(p=0.1, inplace=False)
        (self_attn): MultiheadAttention(
          (k_proj): Linear(in_features=768, out_features=768, bias=True)
          (v_proj): Linear(in_features=768, out_features=768, bias=True)
          (q_proj): Linear(in_features=768, out_features=768, bias=True)
          (out_proj): Linear(in_features=768, out_features=768, bias=True)
          (inner_attn_ln): FusedLayerNorm(torch.Size([768]), eps=1e-05, elementwise_affine=True)
          (dropout_module): Dropout(p=0.1, inplace=False)
          (xpos): XPOS()
        )
        (self_attn_layer_norm): FusedLayerNorm(torch.Size([768]), eps=1e-05, elementwise_affine=True)
        (ffn): FeedForwardNetwork(
          (activation_dropout_module): Dropout(p=0.0, inplace=False)
          (dropout_module): Dropout(p=0.1, inplace=False)
          (fc1): Linear(in_features=768, out_features=3072, bias=True)
          (fc2): Linear(in_features=3072, out_features=768, bias=True)
          (ffn_layernorm): FusedLayerNorm(torch.Size([3072]), eps=1e-05, elementwise_affine=True)
        )
        (final_layer_norm): FusedLayerNorm(torch.Size([768]), eps=1e-05, elementwise_affine=True)
      )
      (5): DecoderLayer(
        (dropout_module): Dropout(p=0.1, inplace=False)
        (self_attn): MultiheadAttention(
          (k_proj): Linear(in_features=768, out_features=768, bias=True)
          (v_proj): Linear(in_features=768, out_features=768, bias=True)
          (q_proj): Linear(in_features=768, out_features=768, bias=True)
          (out_proj): Linear(in_features=768, out_features=768, bias=True)
          (inner_attn_ln): FusedLayerNorm(torch.Size([768]), eps=1e-05, elementwise_affine=True)
          (dropout_module): Dropout(p=0.1, inplace=False)
          (xpos): XPOS()
        )
        (self_attn_layer_norm): FusedLayerNorm(torch.Size([768]), eps=1e-05, elementwise_affine=True)
        (moe_layer): MH_MOELayer(
          (gate): Top2Gate(
            (wg_reduction): Linear(in_features=384, out_features=16, bias=False)
          )
          (experts): ModuleList(
            (0): FeedForwardNetwork(
              (activation_dropout_module): Dropout(p=0.0, inplace=False)
              (dropout_module): Dropout(p=0.1, inplace=False)
              (fc1): Linear(in_features=768, out_features=3072, bias=True)
              (fc2): Linear(in_features=3072, out_features=768, bias=True)
              (ffn_layernorm): FusedLayerNorm(torch.Size([3072]), eps=1e-05, elementwise_affine=True)
            )
          )
          (multi_heads): Linear(in_features=768, out_features=768, bias=True)
          (out_proj): Linear(in_features=768, out_features=768, bias=True)
        )
        (final_layer_norm): FusedLayerNorm(torch.Size([768]), eps=1e-05, elementwise_affine=True)
      )
      (6): DecoderLayer(
        (dropout_module): Dropout(p=0.1, inplace=False)
        (self_attn): MultiheadAttention(
          (k_proj): Linear(in_features=768, out_features=768, bias=True)
          (v_proj): Linear(in_features=768, out_features=768, bias=True)
          (q_proj): Linear(in_features=768, out_features=768, bias=True)
          (out_proj): Linear(in_features=768, out_features=768, bias=True)
          (inner_attn_ln): FusedLayerNorm(torch.Size([768]), eps=1e-05, elementwise_affine=True)
          (dropout_module): Dropout(p=0.1, inplace=False)
          (xpos): XPOS()
        )
        (self_attn_layer_norm): FusedLayerNorm(torch.Size([768]), eps=1e-05, elementwise_affine=True)
        (ffn): FeedForwardNetwork(
          (activation_dropout_module): Dropout(p=0.0, inplace=False)
          (dropout_module): Dropout(p=0.1, inplace=False)
          (fc1): Linear(in_features=768, out_features=3072, bias=True)
          (fc2): Linear(in_features=3072, out_features=768, bias=True)
          (ffn_layernorm): FusedLayerNorm(torch.Size([3072]), eps=1e-05, elementwise_affine=True)
        )
        (final_layer_norm): FusedLayerNorm(torch.Size([768]), eps=1e-05, elementwise_affine=True)
      )
      (7): DecoderLayer(
        (dropout_module): Dropout(p=0.1, inplace=False)
        (self_attn): MultiheadAttention(
          (k_proj): Linear(in_features=768, out_features=768, bias=True)
          (v_proj): Linear(in_features=768, out_features=768, bias=True)
          (q_proj): Linear(in_features=768, out_features=768, bias=True)
          (out_proj): Linear(in_features=768, out_features=768, bias=True)
          (inner_attn_ln): FusedLayerNorm(torch.Size([768]), eps=1e-05, elementwise_affine=True)
          (dropout_module): Dropout(p=0.1, inplace=False)
          (xpos): XPOS()
        )
        (self_attn_layer_norm): FusedLayerNorm(torch.Size([768]), eps=1e-05, elementwise_affine=True)
        (moe_layer): MH_MOELayer(
          (gate): Top2Gate(
            (wg_reduction): Linear(in_features=384, out_features=16, bias=False)
          )
          (experts): ModuleList(
            (0): FeedForwardNetwork(
              (activation_dropout_module): Dropout(p=0.0, inplace=False)
              (dropout_module): Dropout(p=0.1, inplace=False)
              (fc1): Linear(in_features=768, out_features=3072, bias=True)
              (fc2): Linear(in_features=3072, out_features=768, bias=True)
              (ffn_layernorm): FusedLayerNorm(torch.Size([3072]), eps=1e-05, elementwise_affine=True)
            )
          )
          (multi_heads): Linear(in_features=768, out_features=768, bias=True)
          (out_proj): Linear(in_features=768, out_features=768, bias=True)
        )
        (final_layer_norm): FusedLayerNorm(torch.Size([768]), eps=1e-05, elementwise_affine=True)
      )
      (8): DecoderLayer(
        (dropout_module): Dropout(p=0.1, inplace=False)
        (self_attn): MultiheadAttention(
          (k_proj): Linear(in_features=768, out_features=768, bias=True)
          (v_proj): Linear(in_features=768, out_features=768, bias=True)
          (q_proj): Linear(in_features=768, out_features=768, bias=True)
          (out_proj): Linear(in_features=768, out_features=768, bias=True)
          (inner_attn_ln): FusedLayerNorm(torch.Size([768]), eps=1e-05, elementwise_affine=True)
          (dropout_module): Dropout(p=0.1, inplace=False)
          (xpos): XPOS()
        )
        (self_attn_layer_norm): FusedLayerNorm(torch.Size([768]), eps=1e-05, elementwise_affine=True)
        (ffn): FeedForwardNetwork(
          (activation_dropout_module): Dropout(p=0.0, inplace=False)
          (dropout_module): Dropout(p=0.1, inplace=False)
          (fc1): Linear(in_features=768, out_features=3072, bias=True)
          (fc2): Linear(in_features=3072, out_features=768, bias=True)
          (ffn_layernorm): FusedLayerNorm(torch.Size([3072]), eps=1e-05, elementwise_affine=True)
        )
        (final_layer_norm): FusedLayerNorm(torch.Size([768]), eps=1e-05, elementwise_affine=True)
      )
      (9): DecoderLayer(
        (dropout_module): Dropout(p=0.1, inplace=False)
        (self_attn): MultiheadAttention(
          (k_proj): Linear(in_features=768, out_features=768, bias=True)
          (v_proj): Linear(in_features=768, out_features=768, bias=True)
          (q_proj): Linear(in_features=768, out_features=768, bias=True)
          (out_proj): Linear(in_features=768, out_features=768, bias=True)
          (inner_attn_ln): FusedLayerNorm(torch.Size([768]), eps=1e-05, elementwise_affine=True)
          (dropout_module): Dropout(p=0.1, inplace=False)
          (xpos): XPOS()
        )
        (self_attn_layer_norm): FusedLayerNorm(torch.Size([768]), eps=1e-05, elementwise_affine=True)
        (moe_layer): MH_MOELayer(
          (gate): Top2Gate(
            (wg_reduction): Linear(in_features=384, out_features=16, bias=False)
          )
          (experts): ModuleList(
            (0): FeedForwardNetwork(
              (activation_dropout_module): Dropout(p=0.0, inplace=False)
              (dropout_module): Dropout(p=0.1, inplace=False)
              (fc1): Linear(in_features=768, out_features=3072, bias=True)
              (fc2): Linear(in_features=3072, out_features=768, bias=True)
              (ffn_layernorm): FusedLayerNorm(torch.Size([3072]), eps=1e-05, elementwise_affine=True)
            )
          )
          (multi_heads): Linear(in_features=768, out_features=768, bias=True)
          (out_proj): Linear(in_features=768, out_features=768, bias=True)
        )
        (final_layer_norm): FusedLayerNorm(torch.Size([768]), eps=1e-05, elementwise_affine=True)
      )
      (10): DecoderLayer(
        (dropout_module): Dropout(p=0.1, inplace=False)
        (self_attn): MultiheadAttention(
          (k_proj): Linear(in_features=768, out_features=768, bias=True)
          (v_proj): Linear(in_features=768, out_features=768, bias=True)
          (q_proj): Linear(in_features=768, out_features=768, bias=True)
          (out_proj): Linear(in_features=768, out_features=768, bias=True)
          (inner_attn_ln): FusedLayerNorm(torch.Size([768]), eps=1e-05, elementwise_affine=True)
          (dropout_module): Dropout(p=0.1, inplace=False)
          (xpos): XPOS()
        )
        (self_attn_layer_norm): FusedLayerNorm(torch.Size([768]), eps=1e-05, elementwise_affine=True)
        (ffn): FeedForwardNetwork(
          (activation_dropout_module): Dropout(p=0.0, inplace=False)
          (dropout_module): Dropout(p=0.1, inplace=False)
          (fc1): Linear(in_features=768, out_features=3072, bias=True)
          (fc2): Linear(in_features=3072, out_features=768, bias=True)
          (ffn_layernorm): FusedLayerNorm(torch.Size([3072]), eps=1e-05, elementwise_affine=True)
        )
        (final_layer_norm): FusedLayerNorm(torch.Size([768]), eps=1e-05, elementwise_affine=True)
      )
      (11): DecoderLayer(
        (dropout_module): Dropout(p=0.1, inplace=False)
        (self_attn): MultiheadAttention(
          (k_proj): Linear(in_features=768, out_features=768, bias=True)
          (v_proj): Linear(in_features=768, out_features=768, bias=True)
          (q_proj): Linear(in_features=768, out_features=768, bias=True)
          (out_proj): Linear(in_features=768, out_features=768, bias=True)
          (inner_attn_ln): FusedLayerNorm(torch.Size([768]), eps=1e-05, elementwise_affine=True)
          (dropout_module): Dropout(p=0.1, inplace=False)
          (xpos): XPOS()
        )
        (self_attn_layer_norm): FusedLayerNorm(torch.Size([768]), eps=1e-05, elementwise_affine=True)
        (moe_layer): MH_MOELayer(
          (gate): Top2Gate(
            (wg_reduction): Linear(in_features=384, out_features=16, bias=False)
          )
          (experts): ModuleList(
            (0): FeedForwardNetwork(
              (activation_dropout_module): Dropout(p=0.0, inplace=False)
              (dropout_module): Dropout(p=0.1, inplace=False)
              (fc1): Linear(in_features=768, out_features=3072, bias=True)
              (fc2): Linear(in_features=3072, out_features=768, bias=True)
              (ffn_layernorm): FusedLayerNorm(torch.Size([3072]), eps=1e-05, elementwise_affine=True)
            )
          )
          (multi_heads): Linear(in_features=768, out_features=768, bias=True)
          (out_proj): Linear(in_features=768, out_features=768, bias=True)
        )
        (final_layer_norm): FusedLayerNorm(torch.Size([768]), eps=1e-05, elementwise_affine=True)
      )
    )
    (layer_norm): FusedLayerNorm(torch.Size([768]), eps=1e-05, elementwise_affine=True)
  )
)
2023-06-28 18:33:56 | INFO | fairseq_cli.train | task: GPTPretrainingTask
2023-06-28 18:33:56 | INFO | fairseq_cli.train | model: LanguageModel
…
